…
I0511 22:47:50.762948 13634 net.cpp:313] The NetState phase (0) differed from the phase (1) specified by a rule in layer accuracy
I0511 22:47:50.763077 13634 net.cpp:49] Initializing net from parameters: 
name: "ShermanNet"
state {
  phase: TRAIN
}
layer {
  name: "data"
  type: "Data"
  top: "data"
  top: "label"
  include {
    phase: TRAIN
  }
  transform_param {
    mirror: true
    crop_size: 227
    mean_file: "data/ilsvrc12/imagenet_mean.binaryproto"
  }
  data_param {
    source: "/home/nesl/Kaggle_driver_dataset/kaggle_train_lmdb/"
    batch_size: 256
    backend: LMDB
  }
}
layer {
  name: "conv1"
  type: "Convolution"
  bottom: "data"
  top: "conv1"
  param {
    lr_mult: 0
    decay_mult: 1
  }
  param {
    lr_mult: 0
    decay_mult: 0
  }
  convolution_param {
    num_output: 96
    kernel_size: 11
    stride: 4
    weight_filler {
      type: "gaussian"
      std: 0.01
    }
    bias_filler {
      type: "constant"
      value: 0
    }
  }
}
layer {
  name: "relu1"
  type: "ReLU"
  bottom: "conv1"
  top: "conv1"
}
layer {
  name: "pool1"
  type: "Pooling"
  bottom: "conv1"
  top: "pool1"
  pooling_param {
    pool: MAX
    kernel_size: 3
    stride: 2
  }
}
layer {
  name: "norm1"
  type: "LRN"
  bottom: "pool1"
  top: "norm1"
  lrn_param {
    local_size: 5
    alpha: 0.0001
    beta: 0.75
  }
}
layer {
  name: "conv2"
  type: "Convolution"
  bottom: "norm1"
  top: "conv2"
  param {
    lr_mult: 0
    decay_mult: 1
  }
  param {
    lr_mult: 0
    decay_mult: 0
  }
  convolution_param {
    num_output: 256
    pad: 2
    kernel_size: 5
    group: 2
    weight_filler {
      type: "gaussian"
      std: 0.01
    }
    bias_filler {
      type: "constant"
      value: 1
    }
  }
}
layer {
  name: "relu2"
  type: "ReLU"
  bottom: "conv2"
  top: "conv2"
}
layer {
  name: "pool2"
  type: "Pooling"
  bottom: "conv2"
  top: "pool2"
  pooling_param {
    pool: MAX
    kernel_size: 3
    stride: 2
  }
}
layer {
  name: "norm2"
  type: "LRN"
  bottom: "pool2"
  top: "norm2"
  lrn_param {
    local_size: 5
    alpha: 0.0001
    beta: 0.75
  }
}
layer {
  name: "conv3"
  type: "Convolution"
  bottom: "norm2"
  top: "conv3"
  param {
    lr_mult: 0
    decay_mult: 1
  }
  param {
    lr_mult: 0
    decay_mult: 0
  }
  convolution_param {
    num_output: 384
    pad: 1
    kernel_size: 3
    weight_filler {
      type: "gaussian"
      std: 0.01
    }
    bias_filler {
      type: "constant"
      value: 0
    }
  }
}
layer {
  name: "relu3"
  type: "ReLU"
  bottom: "conv3"
  top: "conv3"
}
layer {
  name: "conv4"
  type: "Convolution"
  bottom: "conv3"
  top: "conv4"
  param {
    lr_mult: 0
    decay_mult: 1
  }
  param {
    lr_mult: 0
    decay_mult: 0
  }
  convolution_param {
    num_output: 384
    pad: 1
    kernel_size: 3
    group: 2
    weight_filler {
      type: "gaussian"
      std: 0.01
    }
    bias_filler {
      type: "constant"
      value: 1
    }
  }
}
layer {
  name: "relu4"
  type: "ReLU"
  bottom: "conv4"
  top: "conv4"
}
layer {
  name: "conv5"
  type: "Convolution"
  bottom: "conv4"
  top: "conv5"
  param {
    lr_mult: 1
    decay_mult: 1
  }
  param {
    lr_mult: 2
    decay_mult: 0
  }
  convolution_param {
    num_output: 256
    pad: 1
    kernel_size: 3
    group: 2
    weight_filler {
      type: "gaussian"
      std: 0.01
    }
    bias_filler {
      type: "constant"
      value: 1
    }
  }
}
layer {
  name: "relu5"
  type: "ReLU"
  bottom: "conv5"
  top: "conv5"
}
layer {
  name: "pool5"
  type: "Pooling"
  bottom: "conv5"
  top: "pool5"
  pooling_param {
    pool: MAX
    kernel_size: 3
    stride: 2
  }
}
layer {
  name: "kaggle_fc6"
  type: "InnerProduct"
  bottom: "pool5"
  top: "kaggle_fc6"
  param {
    lr_mult: 10
    decay_mult: 1
  }
  param {
    lr_mult: 20
    decay_mult: 0
  }
  inner_product_param {
    num_output: 4096
    weight_filler {
      type: "gaussian"
      std: 0.005
    }
    bias_filler {
      type: "constant"
      value: 1
    }
  }
}
layer {
  name: "relu6"
  type: "ReLU"
  bottom: "kaggle_fc6"
  top: "kaggle_fc6"
}
layer {
  name: "drop6"
  type: "Dropout"
  bottom: "kaggle_fc6"
  top: "kaggle_fc6"
  dropout_param {
    dropout_ratio: 0.5
  }
}
layer {
  name: "kaggle_fc7"
  type: "InnerProduct"
  bottom: "kaggle_fc6"
  top: "kaggle_fc7"
  param {
    lr_mult: 10
    decay_mult: 1
  }
  param {
    lr_mult: 20
    decay_mult: 0
  }
  inner_product_param {
    num_output: 4096
    weight_filler {
      type: "gaussian"
      std: 0.005
    }
    bias_filler {
      type: "constant"
      value: 1
    }
  }
}
layer {
  name: "relu7"
  type: "ReLU"
  bottom: "kaggle_fc7"
  top: "kaggle_fc7"
}
layer {
  name: "drop7"
  type: "Dropout"
  bottom: "kaggle_fc7"
  top: "kaggle_fc7"
  dropout_param {
    dropout_ratio: 0.5
  }
}
layer {
  name: "kaggle_fc8"
  type: "InnerProduct"
  bottom: "kaggle_fc7"
  top: "kaggle_fc8"
  param {
    lr_mult: 10
    decay_mult: 1
  }
  param {
    lr_mult: 20
    decay_mult: 0
  }
  inner_product_param {
    num_output: 10
    weight_filler {
      type: "gaussian"
      std: 0.01
    }
    bias_filler {
      type: "constant"
      value: 0
    }
  }
}
layer {
  name: "loss"
  type: "SoftmaxWithLoss"
  bottom: "kaggle_fc8"
  bottom: "label"
  top: "loss"
}
I0511 22:47:50.763172 13634 layer_factory.hpp:77] Creating layer data
I0511 22:47:50.763674 13634 net.cpp:91] Creating Layer data
I0511 22:47:50.763685 13634 net.cpp:399] data -> data
I0511 22:47:50.763705 13634 net.cpp:399] data -> label
I0511 22:47:50.763716 13634 data_transformer.cpp:25] Loading mean file from: data/ilsvrc12/imagenet_mean.binaryproto
I0511 22:47:50.765043 13637 db_lmdb.cpp:35] Opened lmdb /home/nesl/Kaggle_driver_dataset/kaggle_train_lmdb/
I0511 22:47:50.810825 13634 data_layer.cpp:41] output data size: 256,3,227,227
I0511 22:47:51.043661 13634 net.cpp:141] Setting up data
I0511 22:47:51.043695 13634 net.cpp:148] Top shape: 256 3 227 227 (39574272)
I0511 22:47:51.043700 13634 net.cpp:148] Top shape: 256 (256)
I0511 22:47:51.043704 13634 net.cpp:156] Memory required for data: 158298112
I0511 22:47:51.043714 13634 layer_factory.hpp:77] Creating layer conv1
I0511 22:47:51.043737 13634 net.cpp:91] Creating Layer conv1
I0511 22:47:51.043743 13634 net.cpp:425] conv1 <- data
I0511 22:47:51.043753 13634 net.cpp:399] conv1 -> conv1
I0511 22:47:51.045573 13634 net.cpp:141] Setting up conv1
I0511 22:47:51.045585 13634 net.cpp:148] Top shape: 256 96 55 55 (74342400)
I0511 22:47:51.045588 13634 net.cpp:156] Memory required for data: 455667712
I0511 22:47:51.045601 13634 layer_factory.hpp:77] Creating layer relu1
I0511 22:47:51.045608 13634 net.cpp:91] Creating Layer relu1
I0511 22:47:51.045613 13634 net.cpp:425] relu1 <- conv1
I0511 22:47:51.045616 13634 net.cpp:386] relu1 -> conv1 (in-place)
I0511 22:47:51.045624 13634 net.cpp:141] Setting up relu1
I0511 22:47:51.045627 13634 net.cpp:148] Top shape: 256 96 55 55 (74342400)
I0511 22:47:51.045630 13634 net.cpp:156] Memory required for data: 753037312
I0511 22:47:51.045634 13634 layer_factory.hpp:77] Creating layer pool1
I0511 22:47:51.045639 13634 net.cpp:91] Creating Layer pool1
I0511 22:47:51.045642 13634 net.cpp:425] pool1 <- conv1
I0511 22:47:51.045646 13634 net.cpp:399] pool1 -> pool1
I0511 22:47:51.045689 13634 net.cpp:141] Setting up pool1
I0511 22:47:51.045696 13634 net.cpp:148] Top shape: 256 96 27 27 (17915904)
I0511 22:47:51.045698 13634 net.cpp:156] Memory required for data: 824700928
I0511 22:47:51.045708 13634 layer_factory.hpp:77] Creating layer norm1
I0511 22:47:51.045724 13634 net.cpp:91] Creating Layer norm1
I0511 22:47:51.045728 13634 net.cpp:425] norm1 <- pool1
I0511 22:47:51.045732 13634 net.cpp:399] norm1 -> norm1
I0511 22:47:51.058856 13634 net.cpp:141] Setting up norm1
I0511 22:47:51.058874 13634 net.cpp:148] Top shape: 256 96 27 27 (17915904)
I0511 22:47:51.058877 13634 net.cpp:156] Memory required for data: 896364544
I0511 22:47:51.058881 13634 layer_factory.hpp:77] Creating layer conv2
I0511 22:47:51.058892 13634 net.cpp:91] Creating Layer conv2
I0511 22:47:51.058897 13634 net.cpp:425] conv2 <- norm1
I0511 22:47:51.058902 13634 net.cpp:399] conv2 -> conv2
I0511 22:47:51.067304 13634 net.cpp:141] Setting up conv2
I0511 22:47:51.067332 13634 net.cpp:148] Top shape: 256 256 27 27 (47775744)
I0511 22:47:51.067337 13634 net.cpp:156] Memory required for data: 1087467520
I0511 22:47:51.067348 13634 layer_factory.hpp:77] Creating layer relu2
I0511 22:47:51.067355 13634 net.cpp:91] Creating Layer relu2
I0511 22:47:51.067360 13634 net.cpp:425] relu2 <- conv2
I0511 22:47:51.067365 13634 net.cpp:386] relu2 -> conv2 (in-place)
I0511 22:47:51.067374 13634 net.cpp:141] Setting up relu2
I0511 22:47:51.067378 13634 net.cpp:148] Top shape: 256 256 27 27 (47775744)
I0511 22:47:51.067381 13634 net.cpp:156] Memory required for data: 1278570496
I0511 22:47:51.067384 13634 layer_factory.hpp:77] Creating layer pool2
I0511 22:47:51.067389 13634 net.cpp:91] Creating Layer pool2
I0511 22:47:51.067392 13634 net.cpp:425] pool2 <- conv2
I0511 22:47:51.067396 13634 net.cpp:399] pool2 -> pool2
I0511 22:47:51.067425 13634 net.cpp:141] Setting up pool2
I0511 22:47:51.067430 13634 net.cpp:148] Top shape: 256 256 13 13 (11075584)
I0511 22:47:51.067433 13634 net.cpp:156] Memory required for data: 1322872832
I0511 22:47:51.067436 13634 layer_factory.hpp:77] Creating layer norm2
I0511 22:47:51.067443 13634 net.cpp:91] Creating Layer norm2
I0511 22:47:51.067446 13634 net.cpp:425] norm2 <- pool2
I0511 22:47:51.067451 13634 net.cpp:399] norm2 -> norm2
I0511 22:47:51.067472 13634 net.cpp:141] Setting up norm2
I0511 22:47:51.067477 13634 net.cpp:148] Top shape: 256 256 13 13 (11075584)
I0511 22:47:51.067481 13634 net.cpp:156] Memory required for data: 1367175168
I0511 22:47:51.067483 13634 layer_factory.hpp:77] Creating layer conv3
I0511 22:47:51.067492 13634 net.cpp:91] Creating Layer conv3
I0511 22:47:51.067494 13634 net.cpp:425] conv3 <- norm2
I0511 22:47:51.067498 13634 net.cpp:399] conv3 -> conv3
I0511 22:47:51.089859 13634 net.cpp:141] Setting up conv3
I0511 22:47:51.089890 13634 net.cpp:148] Top shape: 256 384 13 13 (16613376)
I0511 22:47:51.089893 13634 net.cpp:156] Memory required for data: 1433628672
I0511 22:47:51.089903 13634 layer_factory.hpp:77] Creating layer relu3
I0511 22:47:51.089911 13634 net.cpp:91] Creating Layer relu3
I0511 22:47:51.089915 13634 net.cpp:425] relu3 <- conv3
I0511 22:47:51.089921 13634 net.cpp:386] relu3 -> conv3 (in-place)
I0511 22:47:51.089929 13634 net.cpp:141] Setting up relu3
I0511 22:47:51.089933 13634 net.cpp:148] Top shape: 256 384 13 13 (16613376)
I0511 22:47:51.089936 13634 net.cpp:156] Memory required for data: 1500082176
I0511 22:47:51.089939 13634 layer_factory.hpp:77] Creating layer conv4
I0511 22:47:51.089947 13634 net.cpp:91] Creating Layer conv4
I0511 22:47:51.089951 13634 net.cpp:425] conv4 <- conv3
I0511 22:47:51.089956 13634 net.cpp:399] conv4 -> conv4
I0511 22:47:51.106899 13634 net.cpp:141] Setting up conv4
I0511 22:47:51.106928 13634 net.cpp:148] Top shape: 256 384 13 13 (16613376)
I0511 22:47:51.106931 13634 net.cpp:156] Memory required for data: 1566535680
I0511 22:47:51.106940 13634 layer_factory.hpp:77] Creating layer relu4
I0511 22:47:51.106947 13634 net.cpp:91] Creating Layer relu4
I0511 22:47:51.106951 13634 net.cpp:425] relu4 <- conv4
I0511 22:47:51.106956 13634 net.cpp:386] relu4 -> conv4 (in-place)
I0511 22:47:51.106964 13634 net.cpp:141] Setting up relu4
I0511 22:47:51.106968 13634 net.cpp:148] Top shape: 256 384 13 13 (16613376)
I0511 22:47:51.106971 13634 net.cpp:156] Memory required for data: 1632989184
I0511 22:47:51.106991 13634 layer_factory.hpp:77] Creating layer conv5
I0511 22:47:51.106999 13634 net.cpp:91] Creating Layer conv5
I0511 22:47:51.107002 13634 net.cpp:425] conv5 <- conv4
I0511 22:47:51.107007 13634 net.cpp:399] conv5 -> conv5
I0511 22:47:51.118428 13634 net.cpp:141] Setting up conv5
I0511 22:47:51.118456 13634 net.cpp:148] Top shape: 256 256 13 13 (11075584)
I0511 22:47:51.118460 13634 net.cpp:156] Memory required for data: 1677291520
I0511 22:47:51.118473 13634 layer_factory.hpp:77] Creating layer relu5
I0511 22:47:51.118479 13634 net.cpp:91] Creating Layer relu5
I0511 22:47:51.118484 13634 net.cpp:425] relu5 <- conv5
I0511 22:47:51.118489 13634 net.cpp:386] relu5 -> conv5 (in-place)
I0511 22:47:51.118496 13634 net.cpp:141] Setting up relu5
I0511 22:47:51.118500 13634 net.cpp:148] Top shape: 256 256 13 13 (11075584)
I0511 22:47:51.118504 13634 net.cpp:156] Memory required for data: 1721593856
I0511 22:47:51.118506 13634 layer_factory.hpp:77] Creating layer pool5
I0511 22:47:51.118511 13634 net.cpp:91] Creating Layer pool5
I0511 22:47:51.118515 13634 net.cpp:425] pool5 <- conv5
I0511 22:47:51.118520 13634 net.cpp:399] pool5 -> pool5
I0511 22:47:51.118549 13634 net.cpp:141] Setting up pool5
I0511 22:47:51.118554 13634 net.cpp:148] Top shape: 256 256 6 6 (2359296)
I0511 22:47:51.118557 13634 net.cpp:156] Memory required for data: 1731031040
I0511 22:47:51.118561 13634 layer_factory.hpp:77] Creating layer kaggle_fc6
I0511 22:47:51.118568 13634 net.cpp:91] Creating Layer kaggle_fc6
I0511 22:47:51.118571 13634 net.cpp:425] kaggle_fc6 <- pool5
I0511 22:47:51.118577 13634 net.cpp:399] kaggle_fc6 -> kaggle_fc6
I0511 22:47:52.054942 13634 net.cpp:141] Setting up kaggle_fc6
I0511 22:47:52.054975 13634 net.cpp:148] Top shape: 256 4096 (1048576)
I0511 22:47:52.054980 13634 net.cpp:156] Memory required for data: 1735225344
I0511 22:47:52.054987 13634 layer_factory.hpp:77] Creating layer relu6
I0511 22:47:52.054996 13634 net.cpp:91] Creating Layer relu6
I0511 22:47:52.055001 13634 net.cpp:425] relu6 <- kaggle_fc6
I0511 22:47:52.055006 13634 net.cpp:386] relu6 -> kaggle_fc6 (in-place)
I0511 22:47:52.055016 13634 net.cpp:141] Setting up relu6
I0511 22:47:52.055019 13634 net.cpp:148] Top shape: 256 4096 (1048576)
I0511 22:47:52.055022 13634 net.cpp:156] Memory required for data: 1739419648
I0511 22:47:52.055024 13634 layer_factory.hpp:77] Creating layer drop6
I0511 22:47:52.055030 13634 net.cpp:91] Creating Layer drop6
I0511 22:47:52.055033 13634 net.cpp:425] drop6 <- kaggle_fc6
I0511 22:47:52.055037 13634 net.cpp:386] drop6 -> kaggle_fc6 (in-place)
I0511 22:47:52.055053 13634 net.cpp:141] Setting up drop6
I0511 22:47:52.055058 13634 net.cpp:148] Top shape: 256 4096 (1048576)
I0511 22:47:52.055061 13634 net.cpp:156] Memory required for data: 1743613952
I0511 22:47:52.055064 13634 layer_factory.hpp:77] Creating layer kaggle_fc7
I0511 22:47:52.055070 13634 net.cpp:91] Creating Layer kaggle_fc7
I0511 22:47:52.055073 13634 net.cpp:425] kaggle_fc7 <- kaggle_fc6
I0511 22:47:52.055078 13634 net.cpp:399] kaggle_fc7 -> kaggle_fc7
I0511 22:47:52.467854 13634 net.cpp:141] Setting up kaggle_fc7
I0511 22:47:52.467885 13634 net.cpp:148] Top shape: 256 4096 (1048576)
I0511 22:47:52.467890 13634 net.cpp:156] Memory required for data: 1747808256
I0511 22:47:52.467897 13634 layer_factory.hpp:77] Creating layer relu7
I0511 22:47:52.467905 13634 net.cpp:91] Creating Layer relu7
I0511 22:47:52.467911 13634 net.cpp:425] relu7 <- kaggle_fc7
I0511 22:47:52.467916 13634 net.cpp:386] relu7 -> kaggle_fc7 (in-place)
I0511 22:47:52.467924 13634 net.cpp:141] Setting up relu7
I0511 22:47:52.467928 13634 net.cpp:148] Top shape: 256 4096 (1048576)
I0511 22:47:52.467931 13634 net.cpp:156] Memory required for data: 1752002560
I0511 22:47:52.467934 13634 layer_factory.hpp:77] Creating layer drop7
I0511 22:47:52.467939 13634 net.cpp:91] Creating Layer drop7
I0511 22:47:52.467942 13634 net.cpp:425] drop7 <- kaggle_fc7
I0511 22:47:52.467947 13634 net.cpp:386] drop7 -> kaggle_fc7 (in-place)
I0511 22:47:52.467960 13634 net.cpp:141] Setting up drop7
I0511 22:47:52.467975 13634 net.cpp:148] Top shape: 256 4096 (1048576)
I0511 22:47:52.467985 13634 net.cpp:156] Memory required for data: 1756196864
I0511 22:47:52.467988 13634 layer_factory.hpp:77] Creating layer kaggle_fc8
I0511 22:47:52.467995 13634 net.cpp:91] Creating Layer kaggle_fc8
I0511 22:47:52.467998 13634 net.cpp:425] kaggle_fc8 <- kaggle_fc7
I0511 22:47:52.468003 13634 net.cpp:399] kaggle_fc8 -> kaggle_fc8
I0511 22:47:52.469050 13634 net.cpp:141] Setting up kaggle_fc8
I0511 22:47:52.469058 13634 net.cpp:148] Top shape: 256 10 (2560)
I0511 22:47:52.469060 13634 net.cpp:156] Memory required for data: 1756207104
I0511 22:47:52.469065 13634 layer_factory.hpp:77] Creating layer loss
I0511 22:47:52.469070 13634 net.cpp:91] Creating Layer loss
I0511 22:47:52.469074 13634 net.cpp:425] loss <- kaggle_fc8
I0511 22:47:52.469077 13634 net.cpp:425] loss <- label
I0511 22:47:52.469082 13634 net.cpp:399] loss -> loss
I0511 22:47:52.469094 13634 layer_factory.hpp:77] Creating layer loss
…
I0511 22:47:52.469760 13634 net.cpp:313] The NetState phase (1) differed from the phase (0) specified by a rule in layer data
I0511 22:47:52.469898 13634 net.cpp:49] Initializing net from parameters: 
name: "ShermanNet"
state {
  phase: TEST
}
layer {
  name: "data"
  type: "Data"
  top: "data"
  top: "label"
  include {
    phase: TEST
  }
  transform_param {
    mirror: false
    crop_size: 227
    mean_file: "data/ilsvrc12/imagenet_mean.binaryproto"
  }
  data_param {
    source: "/home/nesl/Kaggle_driver_dataset/kaggle_test_lmdb/"
    batch_size: 256
    backend: LMDB
  }
}
layer {
  name: "conv1"
  type: "Convolution"
  bottom: "data"
  top: "conv1"
  param {
    lr_mult: 0
    decay_mult: 1
  }
  param {
    lr_mult: 0
    decay_mult: 0
  }
  convolution_param {
    num_output: 96
    kernel_size: 11
    stride: 4
    weight_filler {
      type: "gaussian"
      std: 0.01
    }
    bias_filler {
      type: "constant"
      value: 0
    }
  }
}
layer {
  name: "relu1"
  type: "ReLU"
  bottom: "conv1"
  top: "conv1"
}
layer {
  name: "pool1"
  type: "Pooling"
  bottom: "conv1"
  top: "pool1"
  pooling_param {
    pool: MAX
    kernel_size: 3
    stride: 2
  }
}
layer {
  name: "norm1"
  type: "LRN"
  bottom: "pool1"
  top: "norm1"
  lrn_param {
    local_size: 5
    alpha: 0.0001
    beta: 0.75
  }
}
layer {
  name: "conv2"
  type: "Convolution"
  bottom: "norm1"
  top: "conv2"
  param {
    lr_mult: 0
    decay_mult: 1
  }
  param {
    lr_mult: 0
    decay_mult: 0
  }
  convolution_param {
    num_output: 256
    pad: 2
    kernel_size: 5
    group: 2
    weight_filler {
      type: "gaussian"
      std: 0.01
    }
    bias_filler {
      type: "constant"
      value: 1
    }
  }
}
layer {
  name: "relu2"
  type: "ReLU"
  bottom: "conv2"
  top: "conv2"
}
layer {
  name: "pool2"
  type: "Pooling"
  bottom: "conv2"
  top: "pool2"
  pooling_param {
    pool: MAX
    kernel_size: 3
    stride: 2
  }
}
layer {
  name: "norm2"
  type: "LRN"
  bottom: "pool2"
  top: "norm2"
  lrn_param {
    local_size: 5
    alpha: 0.0001
    beta: 0.75
  }
}
layer {
  name: "conv3"
  type: "Convolution"
  bottom: "norm2"
  top: "conv3"
  param {
    lr_mult: 0
    decay_mult: 1
  }
  param {
    lr_mult: 0
    decay_mult: 0
  }
  convolution_param {
    num_output: 384
    pad: 1
    kernel_size: 3
    weight_filler {
      type: "gaussian"
      std: 0.01
    }
    bias_filler {
      type: "constant"
      value: 0
    }
  }
}
layer {
  name: "relu3"
  type: "ReLU"
  bottom: "conv3"
  top: "conv3"
}
layer {
  name: "conv4"
  type: "Convolution"
  bottom: "conv3"
  top: "conv4"
  param {
    lr_mult: 0
    decay_mult: 1
  }
  param {
    lr_mult: 0
    decay_mult: 0
  }
  convolution_param {
    num_output: 384
    pad: 1
    kernel_size: 3
    group: 2
    weight_filler {
      type: "gaussian"
      std: 0.01
    }
    bias_filler {
      type: "constant"
      value: 1
    }
  }
}
layer {
  name: "relu4"
  type: "ReLU"
  bottom: "conv4"
  top: "conv4"
}
layer {
  name: "conv5"
  type: "Convolution"
  bottom: "conv4"
  top: "conv5"
  param {
    lr_mult: 1
    decay_mult: 1
  }
  param {
    lr_mult: 2
    decay_mult: 0
  }
  convolution_param {
    num_output: 256
    pad: 1
    kernel_size: 3
    group: 2
    weight_filler {
      type: "gaussian"
      std: 0.01
    }
    bias_filler {
      type: "constant"
      value: 1
    }
  }
}
layer {
  name: "relu5"
  type: "ReLU"
  bottom: "conv5"
  top: "conv5"
}
layer {
  name: "pool5"
  type: "Pooling"
  bottom: "conv5"
  top: "pool5"
  pooling_param {
    pool: MAX
    kernel_size: 3
    stride: 2
  }
}
layer {
  name: "kaggle_fc6"
  type: "InnerProduct"
  bottom: "pool5"
  top: "kaggle_fc6"
  param {
    lr_mult: 10
    decay_mult: 1
  }
  param {
    lr_mult: 20
    decay_mult: 0
  }
  inner_product_param {
    num_output: 4096
    weight_filler {
      type: "gaussian"
      std: 0.005
    }
    bias_filler {
      type: "constant"
      value: 1
    }
  }
}
layer {
  name: "relu6"
  type: "ReLU"
  bottom: "kaggle_fc6"
  top: "kaggle_fc6"
}
layer {
  name: "drop6"
  type: "Dropout"
  bottom: "kaggle_fc6"
  top: "kaggle_fc6"
  dropout_param {
    dropout_ratio: 0.5
  }
}
layer {
  name: "kaggle_fc7"
  type: "InnerProduct"
  bottom: "kaggle_fc6"
  top: "kaggle_fc7"
  param {
    lr_mult: 10
    decay_mult: 1
  }
  param {
    lr_mult: 20
    decay_mult: 0
  }
  inner_product_param {
    num_output: 4096
    weight_filler {
      type: "gaussian"
      std: 0.005
    }
    bias_filler {
      type: "constant"
      value: 1
    }
  }
}
layer {
  name: "relu7"
  type: "ReLU"
  bottom: "kaggle_fc7"
  top: "kaggle_fc7"
}
layer {
  name: "drop7"
  type: "Dropout"
  bottom: "kaggle_fc7"
  top: "kaggle_fc7"
  dropout_param {
    dropout_ratio: 0.5
  }
}
layer {
  name: "kaggle_fc8"
  type: "InnerProduct"
  bottom: "kaggle_fc7"
  top: "kaggle_fc8"
  param {
    lr_mult: 10
    decay_mult: 1
  }
  param {
    lr_mult: 20
    decay_mult: 0
  }
  inner_product_param {
    num_output: 10
    weight_filler {
      type: "gaussian"
      std: 0.01
    }
    bias_filler {
      type: "constant"
      value: 0
    }
  }
}
layer {
  name: "accuracy"
  type: "Accuracy"
  bottom: "kaggle_fc8"
  bottom: "label"
  top: "accuracy"
  include {
    phase: TEST
  }
}
layer {
  name: "loss"
  type: "SoftmaxWithLoss"
  bottom: "kaggle_fc8"
  bottom: "label"
  top: "loss"
}
I0511 22:47:52.469986 13634 layer_factory.hpp:77] Creating layer data
I0511 22:47:52.470131 13634 net.cpp:91] Creating Layer data
I0511 22:47:52.470139 13634 net.cpp:399] data -> data
I0511 22:47:52.470146 13634 net.cpp:399] data -> label
I0511 22:47:52.470154 13634 data_transformer.cpp:25] Loading mean file from: data/ilsvrc12/imagenet_mean.binaryproto
I0511 22:47:52.471547 13639 db_lmdb.cpp:35] Opened lmdb /home/nesl/Kaggle_driver_dataset/kaggle_test_lmdb/
I0511 22:47:52.471951 13634 data_layer.cpp:41] output data size: 256,3,227,227
I0511 22:47:52.674224 13634 net.cpp:141] Setting up data
I0511 22:47:52.674258 13634 net.cpp:148] Top shape: 256 3 227 227 (39574272)
I0511 22:47:52.674263 13634 net.cpp:148] Top shape: 256 (256)
I0511 22:47:52.674266 13634 net.cpp:156] Memory required for data: 158298112
I0511 22:47:52.674271 13634 layer_factory.hpp:77] Creating layer label_data_1_split
I0511 22:47:52.674283 13634 net.cpp:91] Creating Layer label_data_1_split
I0511 22:47:52.674288 13634 net.cpp:425] label_data_1_split <- label
I0511 22:47:52.674293 13634 net.cpp:399] label_data_1_split -> label_data_1_split_0
I0511 22:47:52.674302 13634 net.cpp:399] label_data_1_split -> label_data_1_split_1
I0511 22:47:52.674350 13634 net.cpp:141] Setting up label_data_1_split
I0511 22:47:52.674355 13634 net.cpp:148] Top shape: 256 (256)
I0511 22:47:52.674358 13634 net.cpp:148] Top shape: 256 (256)
I0511 22:47:52.674361 13634 net.cpp:156] Memory required for data: 158300160
I0511 22:47:52.674365 13634 layer_factory.hpp:77] Creating layer conv1
I0511 22:47:52.674376 13634 net.cpp:91] Creating Layer conv1
I0511 22:47:52.674378 13634 net.cpp:425] conv1 <- data
I0511 22:47:52.674383 13634 net.cpp:399] conv1 -> conv1
I0511 22:47:52.675410 13634 net.cpp:141] Setting up conv1
I0511 22:47:52.675418 13634 net.cpp:148] Top shape: 256 96 55 55 (74342400)
I0511 22:47:52.675421 13634 net.cpp:156] Memory required for data: 455669760
I0511 22:47:52.675431 13634 layer_factory.hpp:77] Creating layer relu1
I0511 22:47:52.675436 13634 net.cpp:91] Creating Layer relu1
I0511 22:47:52.675441 13634 net.cpp:425] relu1 <- conv1
I0511 22:47:52.675444 13634 net.cpp:386] relu1 -> conv1 (in-place)
I0511 22:47:52.675449 13634 net.cpp:141] Setting up relu1
I0511 22:47:52.675453 13634 net.cpp:148] Top shape: 256 96 55 55 (74342400)
I0511 22:47:52.675457 13634 net.cpp:156] Memory required for data: 753039360
I0511 22:47:52.675459 13634 layer_factory.hpp:77] Creating layer pool1
I0511 22:47:52.675465 13634 net.cpp:91] Creating Layer pool1
I0511 22:47:52.675468 13634 net.cpp:425] pool1 <- conv1
I0511 22:47:52.675472 13634 net.cpp:399] pool1 -> pool1
I0511 22:47:52.675498 13634 net.cpp:141] Setting up pool1
I0511 22:47:52.675503 13634 net.cpp:148] Top shape: 256 96 27 27 (17915904)
I0511 22:47:52.675505 13634 net.cpp:156] Memory required for data: 824702976
I0511 22:47:52.675508 13634 layer_factory.hpp:77] Creating layer norm1
I0511 22:47:52.675513 13634 net.cpp:91] Creating Layer norm1
I0511 22:47:52.675516 13634 net.cpp:425] norm1 <- pool1
I0511 22:47:52.675520 13634 net.cpp:399] norm1 -> norm1
I0511 22:47:52.675542 13634 net.cpp:141] Setting up norm1
I0511 22:47:52.675547 13634 net.cpp:148] Top shape: 256 96 27 27 (17915904)
I0511 22:47:52.675550 13634 net.cpp:156] Memory required for data: 896366592
I0511 22:47:52.675554 13634 layer_factory.hpp:77] Creating layer conv2
I0511 22:47:52.675560 13634 net.cpp:91] Creating Layer conv2
I0511 22:47:52.675572 13634 net.cpp:425] conv2 <- norm1
I0511 22:47:52.675585 13634 net.cpp:399] conv2 -> conv2
I0511 22:47:52.689020 13634 net.cpp:141] Setting up conv2
I0511 22:47:52.689051 13634 net.cpp:148] Top shape: 256 256 27 27 (47775744)
I0511 22:47:52.689055 13634 net.cpp:156] Memory required for data: 1087469568
I0511 22:47:52.689066 13634 layer_factory.hpp:77] Creating layer relu2
I0511 22:47:52.689075 13634 net.cpp:91] Creating Layer relu2
I0511 22:47:52.689079 13634 net.cpp:425] relu2 <- conv2
I0511 22:47:52.689085 13634 net.cpp:386] relu2 -> conv2 (in-place)
I0511 22:47:52.689092 13634 net.cpp:141] Setting up relu2
I0511 22:47:52.689096 13634 net.cpp:148] Top shape: 256 256 27 27 (47775744)
I0511 22:47:52.689100 13634 net.cpp:156] Memory required for data: 1278572544
I0511 22:47:52.689102 13634 layer_factory.hpp:77] Creating layer pool2
I0511 22:47:52.689108 13634 net.cpp:91] Creating Layer pool2
I0511 22:47:52.689111 13634 net.cpp:425] pool2 <- conv2
I0511 22:47:52.689116 13634 net.cpp:399] pool2 -> pool2
I0511 22:47:52.689146 13634 net.cpp:141] Setting up pool2
I0511 22:47:52.689151 13634 net.cpp:148] Top shape: 256 256 13 13 (11075584)
I0511 22:47:52.689153 13634 net.cpp:156] Memory required for data: 1322874880
I0511 22:47:52.689157 13634 layer_factory.hpp:77] Creating layer norm2
I0511 22:47:52.689162 13634 net.cpp:91] Creating Layer norm2
I0511 22:47:52.689165 13634 net.cpp:425] norm2 <- pool2
I0511 22:47:52.689169 13634 net.cpp:399] norm2 -> norm2
I0511 22:47:52.689191 13634 net.cpp:141] Setting up norm2
I0511 22:47:52.689196 13634 net.cpp:148] Top shape: 256 256 13 13 (11075584)
I0511 22:47:52.689198 13634 net.cpp:156] Memory required for data: 1367177216
I0511 22:47:52.689201 13634 layer_factory.hpp:77] Creating layer conv3
I0511 22:47:52.689210 13634 net.cpp:91] Creating Layer conv3
I0511 22:47:52.689213 13634 net.cpp:425] conv3 <- norm2
I0511 22:47:52.689218 13634 net.cpp:399] conv3 -> conv3
I0511 22:47:52.711185 13634 net.cpp:141] Setting up conv3
I0511 22:47:52.711217 13634 net.cpp:148] Top shape: 256 384 13 13 (16613376)
I0511 22:47:52.711221 13634 net.cpp:156] Memory required for data: 1433630720
I0511 22:47:52.711232 13634 layer_factory.hpp:77] Creating layer relu3
I0511 22:47:52.711241 13634 net.cpp:91] Creating Layer relu3
I0511 22:47:52.711246 13634 net.cpp:425] relu3 <- conv3
I0511 22:47:52.711251 13634 net.cpp:386] relu3 -> conv3 (in-place)
I0511 22:47:52.711258 13634 net.cpp:141] Setting up relu3
I0511 22:47:52.711262 13634 net.cpp:148] Top shape: 256 384 13 13 (16613376)
I0511 22:47:52.711266 13634 net.cpp:156] Memory required for data: 1500084224
I0511 22:47:52.711268 13634 layer_factory.hpp:77] Creating layer conv4
I0511 22:47:52.711277 13634 net.cpp:91] Creating Layer conv4
I0511 22:47:52.711280 13634 net.cpp:425] conv4 <- conv3
I0511 22:47:52.711284 13634 net.cpp:399] conv4 -> conv4
I0511 22:47:52.727813 13634 net.cpp:141] Setting up conv4
I0511 22:47:52.727841 13634 net.cpp:148] Top shape: 256 384 13 13 (16613376)
I0511 22:47:52.727845 13634 net.cpp:156] Memory required for data: 1566537728
I0511 22:47:52.727852 13634 layer_factory.hpp:77] Creating layer relu4
I0511 22:47:52.727860 13634 net.cpp:91] Creating Layer relu4
I0511 22:47:52.727864 13634 net.cpp:425] relu4 <- conv4
I0511 22:47:52.727870 13634 net.cpp:386] relu4 -> conv4 (in-place)
I0511 22:47:52.727877 13634 net.cpp:141] Setting up relu4
I0511 22:47:52.727881 13634 net.cpp:148] Top shape: 256 384 13 13 (16613376)
I0511 22:47:52.727885 13634 net.cpp:156] Memory required for data: 1632991232
I0511 22:47:52.727887 13634 layer_factory.hpp:77] Creating layer conv5
I0511 22:47:52.727895 13634 net.cpp:91] Creating Layer conv5
I0511 22:47:52.727898 13634 net.cpp:425] conv5 <- conv4
I0511 22:47:52.727903 13634 net.cpp:399] conv5 -> conv5
I0511 22:47:52.739042 13634 net.cpp:141] Setting up conv5
I0511 22:47:52.739071 13634 net.cpp:148] Top shape: 256 256 13 13 (11075584)
I0511 22:47:52.739075 13634 net.cpp:156] Memory required for data: 1677293568
I0511 22:47:52.739086 13634 layer_factory.hpp:77] Creating layer relu5
I0511 22:47:52.739102 13634 net.cpp:91] Creating Layer relu5
I0511 22:47:52.739114 13634 net.cpp:425] relu5 <- conv5
I0511 22:47:52.739119 13634 net.cpp:386] relu5 -> conv5 (in-place)
I0511 22:47:52.739126 13634 net.cpp:141] Setting up relu5
I0511 22:47:52.739130 13634 net.cpp:148] Top shape: 256 256 13 13 (11075584)
I0511 22:47:52.739133 13634 net.cpp:156] Memory required for data: 1721595904
I0511 22:47:52.739136 13634 layer_factory.hpp:77] Creating layer pool5
I0511 22:47:52.739143 13634 net.cpp:91] Creating Layer pool5
I0511 22:47:52.739145 13634 net.cpp:425] pool5 <- conv5
I0511 22:47:52.739151 13634 net.cpp:399] pool5 -> pool5
I0511 22:47:52.739182 13634 net.cpp:141] Setting up pool5
I0511 22:47:52.739187 13634 net.cpp:148] Top shape: 256 256 6 6 (2359296)
I0511 22:47:52.739190 13634 net.cpp:156] Memory required for data: 1731033088
I0511 22:47:52.739193 13634 layer_factory.hpp:77] Creating layer kaggle_fc6
I0511 22:47:52.739199 13634 net.cpp:91] Creating Layer kaggle_fc6
I0511 22:47:52.739202 13634 net.cpp:425] kaggle_fc6 <- pool5
I0511 22:47:52.739207 13634 net.cpp:399] kaggle_fc6 -> kaggle_fc6
I0511 22:47:53.664867 13634 net.cpp:141] Setting up kaggle_fc6
I0511 22:47:53.664901 13634 net.cpp:148] Top shape: 256 4096 (1048576)
I0511 22:47:53.664906 13634 net.cpp:156] Memory required for data: 1735227392
I0511 22:47:53.664913 13634 layer_factory.hpp:77] Creating layer relu6
I0511 22:47:53.664921 13634 net.cpp:91] Creating Layer relu6
I0511 22:47:53.664927 13634 net.cpp:425] relu6 <- kaggle_fc6
I0511 22:47:53.664932 13634 net.cpp:386] relu6 -> kaggle_fc6 (in-place)
I0511 22:47:53.664940 13634 net.cpp:141] Setting up relu6
I0511 22:47:53.664943 13634 net.cpp:148] Top shape: 256 4096 (1048576)
I0511 22:47:53.664947 13634 net.cpp:156] Memory required for data: 1739421696
I0511 22:47:53.664949 13634 layer_factory.hpp:77] Creating layer drop6
I0511 22:47:53.664954 13634 net.cpp:91] Creating Layer drop6
I0511 22:47:53.664958 13634 net.cpp:425] drop6 <- kaggle_fc6
I0511 22:47:53.664961 13634 net.cpp:386] drop6 -> kaggle_fc6 (in-place)
I0511 22:47:53.664976 13634 net.cpp:141] Setting up drop6
I0511 22:47:53.664981 13634 net.cpp:148] Top shape: 256 4096 (1048576)
I0511 22:47:53.664984 13634 net.cpp:156] Memory required for data: 1743616000
I0511 22:47:53.664988 13634 layer_factory.hpp:77] Creating layer kaggle_fc7
I0511 22:47:53.664994 13634 net.cpp:91] Creating Layer kaggle_fc7
I0511 22:47:53.664996 13634 net.cpp:425] kaggle_fc7 <- kaggle_fc6
I0511 22:47:53.665001 13634 net.cpp:399] kaggle_fc7 -> kaggle_fc7
I0511 22:47:54.074118 13634 net.cpp:141] Setting up kaggle_fc7
I0511 22:47:54.074148 13634 net.cpp:148] Top shape: 256 4096 (1048576)
I0511 22:47:54.074152 13634 net.cpp:156] Memory required for data: 1747810304
I0511 22:47:54.074159 13634 layer_factory.hpp:77] Creating layer relu7
I0511 22:47:54.074168 13634 net.cpp:91] Creating Layer relu7
I0511 22:47:54.074177 13634 net.cpp:425] relu7 <- kaggle_fc7
I0511 22:47:54.074182 13634 net.cpp:386] relu7 -> kaggle_fc7 (in-place)
I0511 22:47:54.074190 13634 net.cpp:141] Setting up relu7
I0511 22:47:54.074194 13634 net.cpp:148] Top shape: 256 4096 (1048576)
I0511 22:47:54.074198 13634 net.cpp:156] Memory required for data: 1752004608
I0511 22:47:54.074200 13634 layer_factory.hpp:77] Creating layer drop7
I0511 22:47:54.074205 13634 net.cpp:91] Creating Layer drop7
I0511 22:47:54.074208 13634 net.cpp:425] drop7 <- kaggle_fc7
I0511 22:47:54.074213 13634 net.cpp:386] drop7 -> kaggle_fc7 (in-place)
I0511 22:47:54.074228 13634 net.cpp:141] Setting up drop7
I0511 22:47:54.074232 13634 net.cpp:148] Top shape: 256 4096 (1048576)
I0511 22:47:54.074235 13634 net.cpp:156] Memory required for data: 1756198912
I0511 22:47:54.074237 13634 layer_factory.hpp:77] Creating layer kaggle_fc8
I0511 22:47:54.074244 13634 net.cpp:91] Creating Layer kaggle_fc8
I0511 22:47:54.074247 13634 net.cpp:425] kaggle_fc8 <- kaggle_fc7
I0511 22:47:54.074252 13634 net.cpp:399] kaggle_fc8 -> kaggle_fc8
I0511 22:47:54.075304 13634 net.cpp:141] Setting up kaggle_fc8
I0511 22:47:54.075311 13634 net.cpp:148] Top shape: 256 10 (2560)
I0511 22:47:54.075325 13634 net.cpp:156] Memory required for data: 1756209152
I0511 22:47:54.075336 13634 layer_factory.hpp:77] Creating layer kaggle_fc8_kaggle_fc8_0_split
I0511 22:47:54.075342 13634 net.cpp:91] Creating Layer kaggle_fc8_kaggle_fc8_0_split
I0511 22:47:54.075345 13634 net.cpp:425] kaggle_fc8_kaggle_fc8_0_split <- kaggle_fc8
I0511 22:47:54.075350 13634 net.cpp:399] kaggle_fc8_kaggle_fc8_0_split -> kaggle_fc8_kaggle_fc8_0_split_0
I0511 22:47:54.075356 13634 net.cpp:399] kaggle_fc8_kaggle_fc8_0_split -> kaggle_fc8_kaggle_fc8_0_split_1
I0511 22:47:54.075377 13634 net.cpp:141] Setting up kaggle_fc8_kaggle_fc8_0_split
I0511 22:47:54.075382 13634 net.cpp:148] Top shape: 256 10 (2560)
I0511 22:47:54.075387 13634 net.cpp:148] Top shape: 256 10 (2560)
I0511 22:47:54.075388 13634 net.cpp:156] Memory required for data: 1756229632
I0511 22:47:54.075392 13634 layer_factory.hpp:77] Creating layer accuracy
I0511 22:47:54.075397 13634 net.cpp:91] Creating Layer accuracy
I0511 22:47:54.075400 13634 net.cpp:425] accuracy <- kaggle_fc8_kaggle_fc8_0_split_0
I0511 22:47:54.075404 13634 net.cpp:425] accuracy <- label_data_1_split_0
I0511 22:47:54.075408 13634 net.cpp:399] accuracy -> accuracy
…
